models/pretrained_ncnn/pretrained_ncnn_aerial.pth (torch_old, 4130 bytes, 13 tensors)

nconv1.weight f4 [2, 1, 5, 5]
0	0x3f707f06	0.9394382
1	0x3f70772c	0.9393184
2	0x3f6f541b	0.9348771
3	0x3f65f972	0.8983375
4	0x3f60cabc	0.8780935
5	0x3f828ec2	1.0199816
6	0x400986d2	2.1488538
7	0x403b77d7	2.9291894
8	0x3f78aaf9	0.97135884
9	0x3f6bc03c	0.920902
10	0x3fad4b85	1.3538672
11	0x40c3e138	6.1212425
12	0x41cd7821	25.683657
13	0x40bf4df3	5.9782653
14	0x3fc47671	1.5348645
15	0x3f66b769	0.9012361
16	0x3f73b7eb	0.9520251
17	0x3fb07c0e	1.3787858
18	0x3f844c6c	1.0335822
19	0x3f79b0ba	0.9753529
20	0x3f5c995c	0.8617151
21	0x3f6210d3	0.8830692
22	0x3f699b3d	0.912525
23	0x3f6a23f2	0.914611
24	0x3f68add3	0.90890235
25	0x3f6dfd11	0.92964274
26	0x3f6b3c52	0.91888916
27	0x3f68580c	0.9075935
28	0x3f606901	0.87660223
29	0x3f5c17e3	0.8597395
30	0x3f80f81c	1.0075717
31	0x3f8c9d0e	1.0985429
32	0x3fe041b1	1.7520047
33	0x3f6f0f33	0.9338257
34	0x3f65a539	0.89705235
35	0x3fa360da	1.2763932
36	0x40c88d30	6.267235
37	0x41d251f7	26.290022
38	0x40ccd8fd	6.401488
39	0x3fb6c768	1.4279604
40	0x3f691a58	0.9105582
41	0x3f7bee11	0.98410136
42	0x4023d3fc	2.5598135
43	0x3fc05c4e	1.5028169
44	0x3f7dae92	0.990945
45	0x3f5e16df	0.8675365
46	0x3f65d0ef	0.8977193
47	0x3f70c050	0.94043446
48	0x3f7061d9	0.93899304
49	0x3f6bdff4	0.921386

nconv1.bias f4 [2]
0	0xbeb4d32f	-0.3531737
1	0x3eaef760	0.34173107

nconv2.weight f4 [2, 2, 5, 5]
0	0x3f926a18	1.1438627
1	0x3f9408a9	1.1565143
2	0x3f926391	1.1436635
3	0x3f8ad3d0	1.084589
4	0x3f86d002	1.0532229
5	0x400d067f	2.2035215
6	0x40020a05	2.0318615
7	0x3fe5cded	1.7953469
8	0x3f942709	1.1574413
9	0x3f9237d2	1.1423285
10	0x406d2b27	3.7057588
11	0x40973eef	4.7264323
12	0x415a86cb	13.657908
13	0x40a1cba8	5.0561104
14	0x406bfb44	3.687211
15	0x3f8db289	1.107011
16	0x3f90e23e	1.1319044
17	0x3faa8da9	1.3324481
18	0x3facace3	1.3490261
19	0x3fc78d4a	1.5589993
20	0x3f84d70a	1.0378125
21	0x3f88fef9	1.0702811
22	0x3f8e87ad	1.1135155
23	0x3f8e9ab2	1.1140959
24	0x3f8cd008	1.1000986
25	0x3f90f874	1.1325822
26	0x3f913e13	1.1347069
27	0x3f8e7c69	1.1131717
28	0x3f87fe1b	1.0624422
29	0x3f848e16	1.0355861
30	0x40063a30	2.0973015
31	0x40010d53	2.0164382
32	0x3fdcdd6c	1.7255073
33	0x3f915f5f	1.135723
34	0x3f8fb8d2	1.1228278
35	0x406ec787	3.7309282
36	0x40a0a3b4	5.0199833
37	0x41592a5e	13.572844
38	0x4097c8bf	4.743255
39	0x40693108	3.6436176
40	0x3f8eaabe	1.1145856
41	0x3f938286	1.1524208
42	0x3fbeae75	1.489699
43	0x3fbb85af	1.4650172
44	0x3fcdcf1e	1.6078832
45	0x3f85c5f9	1.0451041
46	0x3f8b2e53	1.0873512
47	0x3f9298fc	1.1452937
48	0x3f91928d	1.1372849
49	0x3f8e4974	1.1116166
50	0x3f930805	1.1486822
51	0x3f95c843	1.170174
52	0x3f951cc8	1.1649408
53	0x3f8c807b	1.0976709
54	0x3f87dbcc	1.0613952
55	0x400aef3a	2.1708512
56	0x400b1a97	2.173498
57	0x400223c0	2.033432
58	0x3f970f85	1.1801611
59	0x3f93150e	1.14908
60	0x405922de	3.3927531
61	0x409e745f	4.9517055
62	0x4164960a	14.286631
63	0x40a2a755	5.0829263
64	0x40672c7f	3.6120908
65	0x3f8ce24d	1.1006562
66	0x3f8fdd2c	1.1239371
67	0x3fa7d78b	1.3112653
68	0x3fa9bd08	1.3260813
69	0x3fb6d2f0	1.4283123
70	0x3f8442a0	1.0332832
71	0x3f882a51	1.0637914
72	0x3f8d6793	1.1047233
73	0x3f8d95b0	1.1061306
74	0x3f8c14f7	1.0943898
75	0x3f915e8a	1.1356976
76	0x3f926af9	1.1438895
77	0x3f901048	1.1254969
78	0x3f88fd70	1.0702343
79	0x3f853830	1.0407772
80	0x400d354b	2.2063777
81	0x4008c0a8	2.1367588
82	0x3ff495fa	1.9108269
83	0x3f92e0d0	1.1474857
84	0x3f903bf3	1.1268295
85	0x405db53d	3.464187
86	0x40a87d6a	5.2653093
87	0x4162eecd	14.183301
88	0x40982d85	4.7555566
89	0x4062b347	3.5421922
90	0x3f8d73cd	1.1050965
91	0x3f91d396	1.1392696
92	0x3fb3e06f	1.4052867
93	0x3fad5729	1.3542224
94	0x3fbf3a86	1.4939735
95	0x3f84ff5f	1.0390433
96	0x3f89f152	1.077677
97	0x3f90aa24	1.1301923
98	0x3f8ffd26	1.124913
99	0x3f8d28a0	1.1028023

nconv2.bias f4 [2]
0	0x3de33dd1	0.11095775
1	0xbdd38423	-0.103279375

nconv3.weight f4 [2, 2, 5, 5]
0	0x3f87b86e	1.0603158
1	0x3f87ee6b	1.0619634
2	0x3f862152	1.0478919
3	0x3f8060ab	1.0029501
4	0x3f791620	0.97299385
5	0x3fc0ade8	1.5053072
6	0x3f9a637b	1.2061609
7	0x3f918b43	1.1370624
8	0x3f8574f2	1.0426314
9	0x3f83f969	1.0310489
10	0x406668b9	3.6001418
11	0x4090eeaa	4.529134
12	0x417c7ee8	15.780983
13	0x408d8550	4.4225235
14	0x4055b2c1	3.3390353
15	0x3f89a2c0	1.0752792
16	0x3f8c65f2	1.0968611
17	0x3fdc3a2f	1.7205256
18	0x3ffeb6a6	1.989949
19	0x400b2a0e	2.1744418
20	0x3f7b79f2	0.9823295
21	0x3f814132	1.0098021
22	0x3f86f021	1.0542032
23	0x3f8873c3	1.0660328
24	0x3f881a08	1.0632944
25	0x3f8842d5	1.0645396
26	0x3f8958e1	1.0730249
27	0x3f88341f	1.0640906
28	0x3f81ecc3	1.0150379
29	0x3f7b2f4f	0.9811906
30	0x3fc9d255	1.5767313
31	0x3faae682	1.3351595
32	0x3f98e588	1.1945047
33	0x3f8725a7	1.0558366
34	0x3f850c0d	1.0394303
35	0x405347a2	3.3012471
36	0x409e82a5	4.953448
37	0x418d6f80	17.679443
38	0x409107d5	4.532206
39	0x4057d8b7	3.3726022
40	0x3f88ace4	1.0677762
41	0x3f8b2d76	1.0873249
42	0x3fcfbfa9	1.6230365
43	0x3fef81c7	1.871148
44	0x400145cc	2.019885
45	0x3f7a660d	0.9781197
46	0x3f807746	1.0036399
47	0x3f85c4b3	1.0450653
48	0x3f875a7e	1.0574491
49	0x3f872643	1.0558552
50	0x3f862e1e	1.0482824
51	0x3f85ff5f	1.0468558
52	0x3f84074c	1.0314727
53	0x3f7d42b1	0.9892989
54	0x3f762b4e	0.9615983
55	0x3fa287ef	1.2697734
56	0x3f947eb1	1.1601163
57	0x3f8eee90	1.1166553
58	0x3f83ebb6	1.0306308
59	0x3f8250ad	1.018087
60	0x40436502	3.05304
61	0x40928a5e	4.5793905
62	0x4185004e	16.625149
63	0x409ae26e	4.8401403
64	0x40511583	3.266938
65	0x3f88d83d	1.0690991
66	0x3f8d5869	1.1042606
67	0x400401d6	2.062612
68	0x4013beeb	2.3085277
69	0x401850c0	2.3799286
70	0x3f7b4df2	0.9816581
71	0x3f81c197	1.0137204
72	0x3f885d13	1.0653404
73	0x3f89a928	1.0754747
74	0x3f886e48	1.0658655
75	0x3f8694bb	1.0514139
76	0x3f871c6a	1.0555546
77	0x3f85a952	1.0442297
78	0x3f7fb877	0.99890846
79	0x3f77e381	0.9683152
80	0x3fad1715	1.3522669
81	0x3f96d307	1.178315
82	0x3f93c69a	1.1544983
83	0x3f85559c	1.0416751
84	0x3f83327a	1.0249779
85	0x404074fb	3.00714
86	0x4091a804	4.5517597
87	0x4193cc04	18.474617
88	0x409da288	4.9260902
89	0x404d0764	3.203576
90	0x3f87d4e0	1.0611839
91	0x3f8bd801	1.0925294
92	0x3ff8c88d	1.9436203
93	0x4015e2cc	2.3419676
94	0x40098882	2.1489568
95	0x3f7a0ff3	0.97680587
96	0x3f80d1e5	1.0064055
97	0x3f86e7c7	1.0539483
98	0x3f884439	1.064582
99	0x3f8752aa	1.0572102

nconv3.bias f4 [2]
0	0xbdb23bcc	-0.087028116
1	0x3da9a08e	0.082825765

nconv4.weight f4 [2, 4, 3, 3]
0	0x4022acb1	2.5417902
1	0x40014470	2.019802
2	0x3fc789ab	1.5588888
3	0x4038d27b	2.8878467
4	0x406b6369	3.6779425
5	0x4073b79d	3.8080819
6	0x3f81a42a	1.0128224
7	0x3f818228	1.0117846
8	0x3f86a70c	1.0519729
9	0x4034683b	2.8188617
10	0x402149fb	2.5201404
11	0x3fecced8	1.8500624
12	0x402c2c62	2.690209
13	0x40114ec4	2.2704325
14	0x4058f7e0	3.390129
15	0x3f7f8558	0.9981284
16	0x3f7ea7f8	0.9947505
17	0x3f846015	1.0341822
18	0x3f623802	0.8836671
19	0x3f60586d	0.8763493
20	0x3f642501	0.89118963
21	0x3f558608	0.8340764
22	0x3f51e7ed	0.81994516
23	0x3f578476	0.84186494
24	0x3f5a8822	0.8536397
25	0x3f59b8f8	0.85047865
26	0x3f5b187e	0.8558425
27	0x3f63d47e	0.8899611
28	0x3f61aab2	0.88151085
29	0x3f666236	0.8999361
30	0x3f54dde6	0.8315109
31	0x3f510249	0.8164411
32	0x3f56caeb	0.8390338
33	0x3f5a6d4a	0.8532301
34	0x3f59715c	0.849386
35	0x3f5b297b	0.8561017
36	0x4030fdda	2.7654939
37	0x4007e1cd	2.1231568
38	0x3fcc80a8	1.5976763
39	0x404442aa	3.0665689
40	0x4062b0a7	3.542032
41	0x40754851	3.8325388
42	0x3f806579	1.0030967
43	0x3f803f51	1.0019323
44	0x3f8523c5	1.0401541
45	0x403ce92f	2.9517324
46	0x4037032d	2.8595688
47	0x3ffb1e75	1.961867
48	0x40229066	2.5400634
49	0x3fcabe89	1.5839397
50	0x40616a2f	3.522106
51	0x3f7d7be8	0.9901719
52	0x3f7ca40d	0.9868782
53	0x3f832aba	1.0247414
54	0x3f627334	0.88457036
55	0x3f605484	0.8762896
56	0x3f6485fe	0.89266956
57	0x3f551a9d	0.83243734
58	0x3f517e3d	0.8183325
59	0x3f57035d	0.83989507
60	0x3f5a440c	0.8526008
61	0x3f596993	0.8492672
62	0x3f5ae82e	0.8551053
63	0x3f640916	0.89076364
64	0x3f619ad4	0.88126874
65	0x3f66c77b	0.90148133
66	0x3f547227	0.8298668
67	0x3f5094f7	0.814773
68	0x3f5647b0	0.83703136
69	0x3f5a2984	0.852196
70	0x3f592411	0.8482066
71	0x3f5af647	0.8553204

nconv4.bias f4 [2]
0	0x3d7ba939	0.06144068
1	0xbd67a52f	-0.056554016

nconv5.weight f4 [2, 4, 3, 3]
0	0x402d950e	2.7122226
1	0x3f8ee928	1.1164904
2	0x3fab258e	1.3370836
3	0x404f93a8	3.2433872
4	0x3f6f6a1f	0.935213
5	0x40656a4b	3.5846126
6	0x3fa209b8	1.2659216
7	0x3f83ff62	1.0312312
8	0x3ff3bd77	1.9042195
9	0x401618af	2.3452566
10	0x3f86f0d3	1.0542244
11	0x3f9eb083	1.2397617
12	0x4045dcea	3.0916085
13	0x3f68dfa2	0.90966237
14	0x40564b6d	3.3483536
15	0x3f9bb4d6	1.2164562
16	0x3f83d0bb	1.0298074
17	0x3ff25ef9	1.8935233
18	0x3f61bd78	0.8817973
19	0x3f60fbda	0.87884295
20	0x3f65496c	0.8956516
21	0x3f52c56a	0.8233248
22	0x3f4e0d6d	0.80489236
23	0x3f5622e8	0.8364701
24	0x3f58abc3	0.8463709
25	0x3f54b940	0.8309517
26	0x3f588fa0	0.84594154
27	0x3f62b8db	0.8856332
28	0x3f621b74	0.8832314
29	0x3f66bc23	0.90130824
30	0x3f525b09	0.8217016
31	0x3f4db773	0.80358046
32	0x3f561f69	0.8364168
33	0x3f5872d1	0.84550196
34	0x3f5477a1	0.8299504
35	0x3f5891d1	0.845975
36	0x3fc2b23a	1.521064
37	0x3f80cd15	1.0062586
38	0x3f80adf6	1.0053089
39	0x4083dea2	4.120927
40	0x3f7b997b	0.9828107
41	0x4060fc2f	3.515392
42	0x3fea265b	1.8292955
43	0x3f8831ec	1.0640235
44	0x4031624e	2.771625
45	0x3fa75c12	1.3074973
46	0x3f7dce5a	0.9914299
47	0x3f7e4742	0.9932748
48	0x405b1323	3.423043
49	0x3f76a98c	0.9635246
50	0x405ca992	3.4478498
51	0x3fecd9a8	1.8503923
52	0x3f94f893	1.1638359
53	0x40414230	3.0196648
54	0x3f600e54	0.87521863
55	0x3f601c23	0.87542933
56	0x3f616800	0.88049316
57	0x3f585991	0.8451167
58	0x3f563fa5	0.83690864
59	0x3f5bef59	0.8591209
60	0x3f57b26a	0.84256613
61	0x3f53e345	0.8276866
62	0x3f578429	0.84186035
63	0x3f60d51f	0.87825197
64	0x3f60f947	0.8788037
65	0x3f6261d2	0.8843051
66	0x3f585ae1	0.8451367
67	0x3f5687cb	0.83800954
68	0x3f5c2be0	0.8600445
69	0x3f579680	0.8421402
70	0x3f53f6d0	0.8279848
71	0x3f57b63e	0.84262455

nconv5.bias f4 [2]
0	0xbefb4651	-0.49077085
1	0x3eff43b2	0.49856335

nconv6.weight f4 [2, 4, 3, 3]
0	0x403061c0	2.7559662
1	0x4062966a	3.5404305
2	0x400b915a	2.1807466
3	0x407a1b8b	3.907931
4	0x40c5d600	6.182373
5	0x40853177	4.162288
6	0x3fdaa10c	1.7080398
7	0x403c0ec2	2.9384007
8	0x4018ee65	2.3895504
9	0x40043d05	2.0662243
10	0x40265be8	2.5993595
11	0x3f9b848e	1.2149827
12	0x4082a260	4.082321
13	0x40dab3e9	6.8344617
14	0x40911b65	4.534594
15	0x40144fc4	2.3173685
16	0x405e6bd4	3.4753313
17	0x403cf5a9	2.952494
18	0x3f62a6fd	0.88536054
19	0x3f6152b3	0.88016814
20	0x3f58c28a	0.84671843
21	0x3f77a4f7	0.9673609
22	0x4081ace4	4.052355
23	0x3f71e324	0.94487214
24	0x3f6198c1	0.8812371
25	0x3f6fe716	0.93711984
26	0x3f6f1a62	0.9339963
27	0x3f6482d3	0.8926212
28	0x3f627c25	0.8847068
29	0x3f587342	0.8455087
30	0x3f7cf363	0.9880888
31	0x4094de5a	4.6521425
32	0x3f71e1c9	0.94485146
33	0x3f633664	0.8875487
34	0x3f74916e	0.9553441
35	0x3f704c45	0.9386638
36	0x404b005e	3.1718974
37	0x40740df3	3.8133514
38	0x4017a4c4	2.3694315
39	0x40795308	3.8956928
40	0x40bbec56	5.8725996
41	0x4065119d	3.5792
42	0x3fe5c107	1.7949532
43	0x40339680	2.8060608
44	0x40216a0f	2.5220983
45	0x4003617e	2.0528255
46	0x403f0444	2.9846354
47	0x3fae2938	1.3606329
48	0x40752f89	3.8310263
49	0x40cd039d	6.406691
50	0x407a63ef	3.9123495
51	0x40198e57	2.3993127
52	0x406933ff	3.6437986
53	0x401cfd4d	2.4529603
54	0x3f62b296	0.8855375
55	0x3f61cb3a	0.88200724
56	0x3f5949ec	0.8487842
57	0x3f77ae4e	0.9675034
58	0x408370f3	4.1075377
59	0x3f72d793	0.9486019
60	0x3f61378e	0.87975395
61	0x3f6e8fb2	0.9318801
62	0x3f6e738f	0.9314508
63	0x3f644461	0.8916684
64	0x3f62aa4e	0.88541114
65	0x3f58bdda	0.8466469
66	0x3f7ceba9	0.9879709
67	0x4097f54c	4.7486935
68	0x3f72ab39	0.94792515
69	0x3f625e51	0.88425165
70	0x3f72341d	0.9461077
71	0x3f6f0ab7	0.93375725

nconv6.bias f4 [2]
0	0x3d684929	0.056710396
1	0xbd7db101	-0.061936382

nconv7.weight f4 [1, 2, 1, 1]
0	0x3fc7a2dd	1.5596577
1	0x3f862eb1	1.0482999
