models/pretrained_ncnn/pretrained_ncnn_kitti.pth (torch_old, 4130 bytes, 13 tensors)

nconv1.weight f4 [2, 1, 5, 5]
000000 78 a7 62 3f bb dd 62 3f 37 22 63 3f 1d fc 62 3f
       0.8853679 0.88619584 0.8872408 0.88665944
000010 07 bb 62 3f ea 89 62 3f d2 b3 62 3f 72 3f 63 3f
       0.8856663 0.8849169 0.88555634 0.88768685
000020 a0 d5 62 3f 8b 94 62 3f 7f 80 62 3f 15 ce 9b 3f
       0.88607216 0.8850791 0.8847732 1.2172266
000030 a5 ea 41 42 e1 c0 ae 41 18 87 62 3f 0d 8b 62 3f
       48.479145 21.84418 0.88487387 0.88493425
000040 a5 ca 62 3f e2 24 ea 40 50 42 63 3f 43 9e 62 3f
       0.8859046 7.3170023 0.8877306 0.8852274
000050 e7 bd 62 3f e7 57 63 3f 00 70 65 3f 7b 1e 64 3f
       0.8857102 0.88806003 0.89624023 0.8910901
000060 80 f2 62 3f 58 a9 62 3f f0 de 62 3f e5 1f 63 3f
       0.88651276 0.8853965 0.88621426 0.8872054
000070 5a fb 62 3f 35 bc 62 3f da 8a 62 3f 2a b5 62 3f
       0.8866478 0.8856843 0.8849312 0.88557684
000080 2f 39 63 3f 1d d4 62 3f e3 94 62 3f d3 80 62 3f
       0.8875913 0.8860491 0.88508433 0.8847782
000090 e7 15 e4 3f 2c f3 3f 42 47 51 a6 41 4a 87 62 3f
       1.7819184 47.987473 20.789686 0.88487685
0000a0 68 8a 62 3f 97 c8 62 3f a0 8f f8 40 c0 32 63 3f
       0.8849244 0.88587326 7.7675323 0.88749313
0000b0 38 9c 62 3f 47 bb 62 3f bd 55 63 3f f0 80 65 3f
       0.8851962 0.8856701 0.888027 0.8964987
0000c0 87 18 64 3f bd ed 62 3f
       0.89099926 0.8864401

nconv1.bias f4 [2]
000000 a1 7b 61 bc 98 3a 05 bc
       -0.013762386 -0.008131646

nconv2.weight f4 [2, 2, 5, 5]
000000 81 18 83 3f 23 3a 83 3f b9 58 83 3f 09 36 83 3f
       1.0241853 1.0252117 1.0261451 1.0250865
000010 f9 18 83 3f b7 0f 83 3f eb 53 83 3f 88 92 87 40
       1.0241996 1.0239171 1.0259985 4.236637
000020 65 34 83 3f 7b 0f 83 3f 39 15 83 3f 43 0d 56 41
       1.0250365 1.0239099 1.0240852 13.378238
000030 c8 28 ca 41 0c 9f 3e 41 a7 10 83 3f 09 27 83 3f
       25.269913 11.91383 1.0239457 1.0246288
000040 60 b9 83 3f 7b 96 85 40 06 a7 83 3f 91 26 83 3f
       1.0290947 4.174619 1.0285347 1.0246145
000050 57 51 83 3f b9 f3 83 3f ff d3 86 3f 83 31 84 3f
       1.0259198 1.0308753 1.0533446 1.032761
000060 c7 59 83 3f bb 26 83 3f 17 55 83 3f 4c 7b 83 3f
       1.0261773 1.0246195 1.0260342 1.0272002
000070 d1 4f 83 3f 73 26 83 3f 97 20 83 3f 9f 9a 83 3f
       1.0258733 1.0246109 1.0244321 1.0281562
000080 a2 82 89 40 8f 67 83 3f b9 1c 83 3f 6b 1c 83 3f
       4.2971964 1.0265979 1.024314 1.0243047
000090 7f 04 5e 41 f0 1d d4 41 de 6b 51 41 2b 14 83 3f
       13.876098 26.514618 13.088835 1.024053
0000a0 65 16 83 3f d3 5c 83 3f b0 66 58 40 61 56 83 3f
       1.0241209 1.0262703 3.3812675 1.0260736
0000b0 65 16 83 3f f5 2b 83 3f 7f 6e 83 3f e5 f6 83 3f
       1.0241209 1.024779 1.0268096 1.0309721
0000c0 ec 7e 83 3f 91 32 83 3f 6f 1b 83 3f 51 39 83 3f
       1.0273108 1.0249807 1.0242747 1.0251867
0000d0 25 56 83 3f 81 36 83 3f 5f 1c 83 3f 2d 12 83 3f
       1.0260664 1.0251008 1.0243033 1.0239922
0000e0 3f 5a 83 3f 81 68 05 41 a1 40 83 3f ff 12 83 3f
       1.0261916 8.338014 1.0254098 1.0240172
0000f0 e9 16 83 3f b2 bd 51 41 00 4b d1 41 5d 5f 44 41
       1.0241367 13.108812 26.161621 12.273282
000100 a1 16 83 3f 31 2c 83 3f 45 02 84 3f c9 63 83 40
       1.0241281 1.0247861 1.0313193 4.105931
000110 b1 d9 83 3f 31 2c 83 3f cb 46 83 3f 2d 08 84 3f
       1.0300809 1.0247861 1.0255979 1.0314995
000120 a5 90 8c 3f bf a4 84 3f 25 56 83 3f d5 2d 83 3f
       1.0981642 1.0362777 1.0260664 1.0248362
000130 21 5a 83 3f 1d 83 83 3f 23 58 83 3f a5 30 83 3f
       1.026188 1.0274388 1.0261272 1.024922
000140 59 22 83 3f 44 a2 83 3f 60 10 cc 40 94 78 83 3f
       1.0244857 1.0283895 6.376999 1.0271173
000150 77 22 83 3f fb 16 83 3f 16 48 48 41 94 00 ce 41
       1.0244893 1.0241388 12.517599 25.750282
000160 05 97 47 41 e1 12 83 3f bb 1a 83 3f 9f 80 83 3f
       12.47437 1.0240136 1.0242532 1.0273627
000170 f0 cc 30 40 52 6b 83 3f ad 19 83 3f 17 37 83 3f
       2.7625084 1.0267127 1.0242211 1.0251187
000180 54 8b 83 3f 3b 35 84 3f 67 a9 83 3f 75 42 83 3f
       1.0276895 1.0328745 1.0286072 1.0254656

nconv2.bias f4 [2]
000000 d7 44 1d bd 28 ba 11 3d
       -0.03839573 0.035577923

nconv3.weight f4 [2, 2, 5, 5]
000000 4b a7 77 3f cb 5b 87 3f 0f 51 bf 3f 2b 23 80 3f
       0.96739644 1.0574888 1.4946612 1.0010732
000010 e0 d1 76 3f 57 9d 75 3f b7 71 7a 3f 63 4a d9 3f
       0.96413994 0.95943207 0.97829765 1.6975826
000020 1b 86 77 3f 10 28 75 3f c0 43 75 3f 48 b0 59 41
       0.96689004 0.95764256 0.95806503 13.605537
000030 64 e9 bf 41 7b c0 75 41 c3 e0 74 3f f8 22 75 3f
       23.98896 15.359492 0.9565546 0.95756483
000040 7d b0 77 3f 24 3b d6 40 5d 91 78 3f 4a 22 75 3f
       0.96753675 6.6947193 0.97096807 0.95755446
000050 8b 8b 75 3f 70 94 77 3f 0b eb 7c 3f 68 c5 77 3f
       0.9591605 0.9671087 0.9879615 0.96785593
000060 a8 7b 75 3f eb 20 75 3f b0 57 76 3f 1b 58 77 3f
       0.9589181 0.95753354 0.9622755 0.96618813
000070 f0 33 76 3f 88 1a 75 3f 12 30 75 3f 95 ea 77 3f
       0.96173 0.9574361 0.95776474 0.9684232
000080 27 33 84 3f 70 d8 76 3f b8 03 75 3f 27 49 75 3f
       1.032811 0.9642401 0.957088 0.95814747
000090 54 ee 54 41 ee 8a bf 41 b7 07 5e 41 a7 02 75 3f
       13.308186 23.942837 13.8768835 0.9570717
0000a0 8f e9 74 3f 27 98 77 3f 47 31 1b 41 6d ae 77 3f
       0.9566888 0.9671654 9.699531 0.9675053
0000b0 75 e1 74 3f 1a ca 74 3f 2f 11 76 3f 10 98 7a 3f
       0.9565652 0.9562088 0.9611997 0.9788828
0000c0 8f 23 76 3f 7a c5 74 3f 65 72 74 3f 3a b1 74 3f
       0.9614801 0.95613825 0.9548705 0.95582926
0000d0 c8 f0 74 3f eb b6 74 3f 4d 7b 74 3f d7 95 74 3f
       0.95679903 0.9559161 0.9550064 0.9554114
0000e0 13 95 75 3f 32 ef c5 3f ba 81 75 3f 6d a5 74 3f
       0.95930594 1.5463622 0.9590107 0.9556492
0000f0 7d 03 75 3f 40 9f 55 41 37 30 d6 41 c9 cf 74 41
       0.9570845 13.351379 26.773542 15.300729
000100 5f 07 75 3f 68 1e 75 3f f5 29 78 3f ba d0 86 40
       0.9571437 0.9574952 0.9693902 4.2129793
000110 97 d2 77 3f 1a 33 75 3f 4d 79 75 3f 65 af 78 3f
       0.9680571 0.957811 0.95888215 0.9714263
000120 4e 87 83 3f 08 46 79 3f dd b2 75 3f 3d f1 74 3f
       1.0275667 0.97372484 0.9597605 0.956806
000130 7a 76 75 3f 20 f7 75 3f 28 80 75 3f ea 06 75 3f
       0.95883906 0.9608021 0.95898676 0.95713675
000140 b0 de 74 3f 2f 11 76 3f c5 ab 79 3f c0 f9 75 3f
       0.95652294 0.9611997 0.97527725 0.96084213
000150 73 f9 74 3f 1a e9 74 3f 8c 49 4f 41 e2 bd d1 41
       0.9569313 0.95668185 12.955456 26.217716
000160 57 aa 60 41 23 e5 74 3f 2b ea 74 3f f7 61 78 3f
       14.041587 0.95662135 0.9566981 0.9702448
000170 fa 99 c5 40 2a 2e 77 3f 8f fd 74 3f 5f 4b 76 3f
       6.175046 0.96554816 0.956994 0.9620876
000180 ab 06 7d 3f 9b 7c 3c 40 bd d8 80 3f 23 2c 77 3f
       0.988383 2.9451053 1.0066143 0.9655172

nconv3.bias f4 [2]
000000 39 08 f0 bd 77 c5 c1 3d
       -0.11720318 0.094614916

nconv4.weight f4 [2, 4, 3, 3]
000000 4b f9 64 3f 1f 4f 26 40 f8 12 66 3f fa c2 4c 41
       0.8944289 2.5985792 0.89872694 12.797602
000010 d2 21 9d 41 15 e8 47 41 a0 2e 71 3f e5 f8 14 40
       19.641514 12.494161 0.9421177 2.3276913
000020 d8 69 69 3f 8f d5 64 3f 0b 51 6b 3f 60 7f 65 3f
       0.9117713 0.89388365 0.91920537 0.89647484
000030 e7 2b 5b 41 bc 0b 9b 41 34 c9 43 41 5b 5f 8b 3f
       13.698218 19.38073 12.236622 1.0888475
000040 fa bf ac 3f 97 f1 72 3f 98 63 65 3f a0 0a 64 3f
       1.3496087 0.94899887 0.89605093 0.8907871
000050 35 02 65 3f 0b 4e 64 3f e7 db 63 3f b2 bf 64 3f
       0.8945649 0.89181584 0.8900742 0.89355004
000060 3f 0e 64 3f 7d 1b 64 3f bf e4 64 3f 23 bf 65 3f
       0.8908424 0.89104444 0.8941154 0.89744776
000070 50 12 64 3f 80 f7 64 3f 0b a2 65 3f 13 c6 64 3f
       0.8909044 0.89440155 0.8970038 0.8936474
000080 13 b9 65 3f bf 4e 65 3f 7d 07 65 3f d0 de 65 3f
       0.89735526 0.8957328 0.8946455 0.8979311
000090 7b 9b 6a 3f ac fd f7 40 b0 d3 4f 40 28 01 27 41
       0.91643494 7.749716 3.2472954 10.437782
0000a0 da 07 b2 41 11 fc 3d 41 9b 57 66 3f 94 0f b5 40
       22.253834 11.87404 0.89977425 5.6581516
0000b0 b2 d0 6c 3f 28 73 67 3f dc 59 a9 40 7d 74 db 3f
       0.92505944 0.9041009 5.292219 1.7144924
0000c0 1f 64 32 41 bb c0 a3 41 d9 c8 34 41 22 9c 65 3f
       11.149444 20.469107 11.299035 0.89691365
0000d0 d1 5c a2 40 62 53 66 3f 1f 0d 64 3f 20 92 64 3f
       5.07383 0.8997098 0.8908252 0.8928547
0000e0 fb 9d 65 3f 20 21 64 3f 42 f5 64 3f 07 eb 65 3f
       0.89694184 0.89113045 0.89436734 0.8981175
0000f0 82 50 64 3f 8b 2c 65 3f 40 fe 66 3f 10 06 64 3f
       0.89185345 0.8952109 0.90231705 0.8907175
000100 d2 30 64 3f da 32 65 3f eb c6 63 3f 1d ff 63 3f
       0.89136994 0.8953072 0.889754 0.89061147
000110 cf d4 64 3f 78 e4 63 3f c5 37 64 3f 08 51 65 3f
       0.8938722 0.8902049 0.891476 0.8957677

nconv4.bias f4 [2]
000000 08 67 62 3e 01 50 1a be
       0.22109616 -0.15069582

nconv5.weight f4 [2, 4, 3, 3]
000000 18 df 6a 3f 69 9b 92 3f 47 d0 6e 3f 88 1d 70 3f
       0.91746664 1.1453677 0.93286556 0.9379506
000010 54 58 8d 40 6b 92 8f 3f a2 4d f9 3f 36 ab 96 40
       4.4170322 1.1216558 1.9476817 4.7084
000020 8a c2 e0 3f 0d 28 68 3f 8b 83 82 3f 18 b9 6a 3f
       1.7559369 0.9068611 1.0196394 0.9168868
000030 f7 cc 43 40 b5 fa f1 40 8f 7c 77 40 9a fb 35 40
       3.059385 7.561854 3.8669775 2.8434815
000040 f7 63 e2 40 31 96 22 40 03 b3 67 3f bf 90 67 3f
       7.0747027 2.540417 0.90507525 0.9045524
000050 3b 05 68 3f 8a 40 66 3f 82 e5 65 3f bb 17 66 3f
       0.9063298 0.8994223 0.89803326 0.8987996
000060 00 f1 68 3f 5d 2b 68 3f 97 c3 68 3f c7 5e 65 3f
       0.90992737 0.9069117 0.90923446 0.89597744
000070 fb 5d 67 3f c0 18 67 3f 98 ed 67 3f 57 89 74 3f
       0.9037778 0.9027214 0.90596914 0.95522064
000080 2b 03 70 3f 42 ed 64 3f 82 e5 65 3f 90 c4 65 3f
       0.93754834 0.89424527 0.89803326 0.89753056
000090 78 9c 6a 3f 81 9b 8d 3f f7 78 6e 3f a5 81 74 3f
       0.91645 1.1063081 0.9315333 0.9551032
0000a0 ef eb 8c 40 24 5e a4 3f 0d 59 fb 3f c9 23 96 40
       4.4038005 1.284123 1.9636551 4.6918683
0000b0 03 0b e3 3f a0 43 68 3f fe ef 82 3f 5b eb 6a 3f
       1.7737736 0.9072819 1.022949 0.91765374
0000c0 78 6e 43 40 94 16 ee 40 e2 41 7a 40 8a 1b 34 40
       3.0536175 7.440256 3.9102712 2.8141809
0000d0 76 ae de 40 7d cb 1e 40 97 a6 67 3f e7 6e 67 3f
       6.9587965 2.48117 0.9048857 0.904036
0000e0 d3 e4 67 3f 57 31 66 3f df ca 65 3f 9a fc 65 3f
       0.90583533 0.89919037 0.8976268 0.89838564
0000f0 fa 49 69 3f 20 57 68 3f b0 f7 68 3f d5 7a 65 3f
       0.91128504 0.9075794 0.9100294 0.8964055
000100 b3 7d 67 3f fb 38 67 3f a7 f1 67 3f 87 4f 73 3f
       0.90426177 0.9032132 0.9060311 0.95043224
000110 53 71 6f 3f ba f1 64 3f ed e8 65 3f 35 c9 65 3f
       0.93532294 0.89431345 0.8980854 0.8976014

nconv5.bias f4 [2]
000000 1d c8 2f bc f8 e0 24 bb
       -0.010728863 -0.0025158506

nconv6.weight f4 [2, 4, 3, 3]
000000 f0 84 62 3f 55 85 62 3f e2 85 62 3f d2 90 62 3f
       0.88484097 0.884847 0.8848554 0.8850223
000010 8a 91 62 3f 23 91 62 3f 9f 99 62 3f 58 9a 62 3f
       0.88503325 0.8850271 0.8851566 0.8851676
000020 ca 98 62 3f 0a 80 62 3f 38 80 62 3f d3 80 62 3f
       0.8851439 0.8847662 0.88476896 0.8847782
000030 c3 87 62 3f ea 87 62 3f ea 87 62 3f e2 8f 62 3f
       0.88488406 0.8848864 0.8848864 0.885008
000040 33 90 62 3f 18 8f 62 3f 12 56 67 3f eb 4c a2 3f
       0.8850128 0.88499594 0.9036571 1.2679724
000050 ea 4b 66 3f c5 9d d7 40 b3 1d 25 41 29 52 d1 40
       0.89959586 6.738009 10.319751 6.5412793
000060 3d 58 70 3f b6 4d 8b 40 53 67 a9 3f 17 55 66 3f
       0.9388464 4.353236 1.3234657 0.89973587
000070 e2 5e 6c 3f 20 72 66 3f 50 46 ce 40 68 9b 1d 41
       0.9233228 0.9001789 6.446083 9.850441
000080 b8 15 c0 40 af c5 73 3f 9a a9 a9 40 ef c3 e8 3f
       6.002651 0.95223516 5.3019533 1.8184794
000090 85 c9 62 3f a0 cc 62 3f ff c8 62 3f c8 c8 62 3f
       0.88588744 0.8859348 0.88587946 0.8858762
0000a0 62 cb 62 3f 25 c6 62 3f 92 b2 62 3f 82 b3 62 3f
       0.8859159 0.88583595 0.88553727 0.8855516
0000b0 7a ae 62 3f 4d d8 62 3f df db 62 3f cd d7 62 3f
       0.8854748 0.886113 0.88616747 0.88610536
0000c0 7d d7 62 3f c5 da 62 3f b2 d4 62 3f 9b bd 62 3f
       0.8861006 0.88615066 0.886058 0.88570565
0000d0 00 bf 62 3f 92 b9 62 3f 80 33 6a 3f 69 99 17 40
       0.8857269 0.8856441 0.9148483 2.3687384
0000e0 67 b3 67 3f 39 2f a7 40 57 c9 f3 40 00 94 a6 40
       0.9050812 5.2245145 7.6183276 5.2055664
0000f0 4b 00 75 3f a2 f1 68 40 b9 2e a8 3f 88 55 66 3f
       0.9570357 3.639748 1.3139259 0.8997426
000100 ad 0c a7 3f 9d 1d 66 3f 9a e8 d2 40 f2 9a 29 41
       1.3050743 0.89888936 6.5908937 10.600328
000110 3c b2 d2 40 33 89 8a 3f 2c e1 b0 40 0f 81 c6 3f
       6.584257 1.082312 5.527487 1.5508136

nconv6.bias f4 [2]
000000 48 fb aa 3c bb 77 57 bd
       0.020871773 -0.05260442

nconv7.weight f4 [1, 2, 1, 1]
000000 44 e6 1a 40 af 21 80 3f
       2.4203043 1.001028
